…
02/26/2024 08:26:13 PM: [ Build word dictionary ]
02/26/2024 08:26:17 PM: [ Num words in source = 50000 and target = 30000 ]
02/26/2024 08:26:19 PM: [ Trainable #parameters [encoder-decoder] 58.9M [total] 101M ]
02/26/2024 08:26:19 PM: [ Breakdown of the trainable paramters
+---------------------------------------------------------------+--------------+----------+
| Layer Name                                                    | Output Shape |  Param # |
+---------------------------------------------------------------+--------------+----------+
| embedder.src_word_embeddings.make_embedding.emb_luts.0.weight | [50000, 512] | 25600000 |
| embedder.tgt_word_embeddings.make_embedding.emb_luts.0.weight | [30000, 512] | 15360000 |
| embedder.tgt_pos_embeddings.weight                            |    [52, 512] |    26624 |
| encoder.transformer.layer.0.attention.key.weight              |   [512, 512] |   262144 |
| encoder.transformer.layer.0.attention.key.bias                |        [512] |      512 |
| encoder.transformer.layer.0.attention.query.weight            |   [512, 512] |   262144 |
| encoder.transformer.layer.0.attention.query.bias              |        [512] |      512 |
| encoder.transformer.layer.0.attention.value.weight            |   [512, 512] |   262144 |
| encoder.transformer.layer.0.attention.value.bias              |        [512] |      512 |
| encoder.transformer.layer.0.attention.output.weight           |   [512, 512] |   262144 |
| encoder.transformer.layer.0.attention.output.bias             |        [512] |      512 |
| encoder.transformer.layer.0.layer_norm.weight                 |        [512] |      512 |
| encoder.transformer.layer.0.layer_norm.bias                   |        [512] |      512 |
| encoder.transformer.layer.0.feed_forward.intermediate.weight  |  [2048, 512] |  1048576 |
| encoder.transformer.layer.0.feed_forward.intermediate.bias    |       [2048] |     2048 |
| encoder.transformer.layer.0.feed_forward.output.weight        |  [512, 2048] |  1048576 |
| encoder.transformer.layer.0.feed_forward.output.bias          |        [512] |      512 |
| encoder.transformer.layer.0.feed_forward.layer_norm.weight    |        [512] |      512 |
| encoder.transformer.layer.0.feed_forward.layer_norm.bias      |        [512] |      512 |
| encoder.transformer.layer.1.attention.key.weight              |   [512, 512] |   262144 |
| encoder.transformer.layer.1.attention.key.bias                |        [512] |      512 |
| encoder.transformer.layer.1.attention.query.weight            |   [512, 512] |   262144 |
| encoder.transformer.layer.1.attention.query.bias              |        [512] |      512 |
| encoder.transformer.layer.1.attention.value.weight            |   [512, 512] |   262144 |
| encoder.transformer.layer.1.attention.value.bias              |        [512] |      512 |
| encoder.transformer.layer.1.attention.output.weight           |   [512, 512] |   262144 |
| encoder.transformer.layer.1.attention.output.bias             |        [512] |      512 |
| encoder.transformer.layer.1.layer_norm.weight                 |        [512] |      512 |
| encoder.transformer.layer.1.layer_norm.bias                   |        [512] |      512 |
| encoder.transformer.layer.1.feed_forward.intermediate.weight  |  [2048, 512] |  1048576 |
| encoder.transformer.layer.1.feed_forward.intermediate.bias    |       [2048] |     2048 |
| encoder.transformer.layer.1.feed_forward.output.weight        |  [512, 2048] |  1048576 |
| encoder.transformer.layer.1.feed_forward.output.bias          |        [512] |      512 |
| encoder.transformer.layer.1.feed_forward.layer_norm.weight    |        [512] |      512 |
| encoder.transformer.layer.1.feed_forward.layer_norm.bias      |        [512] |      512 |
| encoder.transformer.layer.2.attention.key.weight              |   [512, 512] |   262144 |
| encoder.transformer.layer.2.attention.key.bias                |        [512] |      512 |
| encoder.transformer.layer.2.attention.query.weight            |   [512, 512] |   262144 |
| encoder.transformer.layer.2.attention.query.bias              |        [512] |      512 |
| encoder.transformer.layer.2.attention.value.weight            |   [512, 512] |   262144 |
| encoder.transformer.layer.2.attention.value.bias              |        [512] |      512 |
| encoder.transformer.layer.2.attention.output.weight           |   [512, 512] |   262144 |
| encoder.transformer.layer.2.attention.output.bias             |        [512] |      512 |
| encoder.transformer.layer.2.layer_norm.weight                 |        [512] |      512 |
| encoder.transformer.layer.2.layer_norm.bias                   |        [512] |      512 |
| encoder.transformer.layer.2.feed_forward.intermediate.weight  |  [2048, 512] |  1048576 |
| encoder.transformer.layer.2.feed_forward.intermediate.bias    |       [2048] |     2048 |
| encoder.transformer.layer.2.feed_forward.output.weight        |  [512, 2048] |  1048576 |
| encoder.transformer.layer.2.feed_forward.output.bias          |        [512] |      512 |
| encoder.transformer.layer.2.feed_forward.layer_norm.weight    |        [512] |      512 |
| encoder.transformer.layer.2.feed_forward.layer_norm.bias      |        [512] |      512 |
| encoder.transformer.layer.3.attention.key.weight              |   [512, 512] |   262144 |
| encoder.transformer.layer.3.attention.key.bias                |        [512] |      512 |
| encoder.transformer.layer.3.attention.query.weight            |   [512, 512] |   262144 |
| encoder.transformer.layer.3.attention.query.bias              |        [512] |      512 |
| encoder.transformer.layer.3.attention.value.weight            |   [512, 512] |   262144 |
| encoder.transformer.layer.3.attention.value.bias              |        [512] |      512 |
| encoder.transformer.layer.3.attention.output.weight           |   [512, 512] |   262144 |
| encoder.transformer.layer.3.attention.output.bias             |        [512] |      512 |
| encoder.transformer.layer.3.layer_norm.weight                 |        [512] |      512 |
| encoder.transformer.layer.3.layer_norm.bias                   |        [512] |      512 |
| encoder.transformer.layer.3.feed_forward.intermediate.weight  |  [2048, 512] |  1048576 |
| encoder.transformer.layer.3.feed_forward.intermediate.bias    |       [2048] |     2048 |
| encoder.transformer.layer.3.feed_forward.output.weight        |  [512, 2048] |  1048576 |
| encoder.transformer.layer.3.feed_forward.output.bias          |        [512] |      512 |
| encoder.transformer.layer.3.feed_forward.layer_norm.weight    |        [512] |      512 |
| encoder.transformer.layer.3.feed_forward.layer_norm.bias      |        [512] |      512 |
| encoder.transformer.layer.4.attention.key.weight              |   [512, 512] |   262144 |
| encoder.transformer.layer.4.attention.key.bias                |        [512] |      512 |
| encoder.transformer.layer.4.attention.query.weight            |   [512, 512] |   262144 |
| encoder.transformer.layer.4.attention.query.bias              |        [512] |      512 |
| encoder.transformer.layer.4.attention.value.weight            |   [512, 512] |   262144 |
| encoder.transformer.layer.4.attention.value.bias              |        [512] |      512 |
| encoder.transformer.layer.4.attention.output.weight           |   [512, 512] |   262144 |
| encoder.transformer.layer.4.attention.output.bias             |        [512] |      512 |
| encoder.transformer.layer.4.layer_norm.weight                 |        [512] |      512 |
| encoder.transformer.layer.4.layer_norm.bias                   |        [512] |      512 |
| encoder.transformer.layer.4.feed_forward.intermediate.weight  |  [2048, 512] |  1048576 |
| encoder.transformer.layer.4.feed_forward.intermediate.bias    |       [2048] |     2048 |
| encoder.transformer.layer.4.feed_forward.output.weight        |  [512, 2048] |  1048576 |
| encoder.transformer.layer.4.feed_forward.output.bias          |        [512] |      512 |
| encoder.transformer.layer.4.feed_forward.layer_norm.weight    |        [512] |      512 |
| encoder.transformer.layer.4.feed_forward.layer_norm.bias      |        [512] |      512 |
| encoder.transformer.layer.5.attention.key.weight              |   [512, 512] |   262144 |
| encoder.transformer.layer.5.attention.key.bias                |        [512] |      512 |
| encoder.transformer.layer.5.attention.query.weight            |   [512, 512] |   262144 |
| encoder.transformer.layer.5.attention.query.bias              |        [512] |      512 |
| encoder.transformer.layer.5.attention.value.weight            |   [512, 512] |   262144 |
| encoder.transformer.layer.5.attention.value.bias              |        [512] |      512 |
| encoder.transformer.layer.5.attention.output.weight           |   [512, 512] |   262144 |
| encoder.transformer.layer.5.attention.output.bias             |        [512] |      512 |
| encoder.transformer.layer.5.layer_norm.weight                 |        [512] |      512 |
| encoder.transformer.layer.5.layer_norm.bias                   |        [512] |      512 |
| encoder.transformer.layer.5.feed_forward.intermediate.weight  |  [2048, 512] |  1048576 |
| encoder.transformer.layer.5.feed_forward.intermediate.bias    |       [2048] |     2048 |
| encoder.transformer.layer.5.feed_forward.output.weight        |  [512, 2048] |  1048576 |
| encoder.transformer.layer.5.feed_forward.output.bias          |        [512] |      512 |
| encoder.transformer.layer.5.feed_forward.layer_norm.weight    |        [512] |      512 |
| encoder.transformer.layer.5.feed_forward.layer_norm.bias      |        [512] |      512 |
| encoder.transformer.layer.6.attention.key.weight              |   [512, 512] |   262144 |
| encoder.transformer.layer.6.attention.key.bias                |        [512] |      512 |
| encoder.transformer.layer.6.attention.query.weight            |   [512, 512] |   262144 |
| encoder.transformer.layer.6.attention.query.bias              |        [512] |      512 |
| encoder.transformer.layer.6.attention.value.weight            |   [512, 512] |   262144 |
| encoder.transformer.layer.6.attention.value.bias              |        [512] |      512 |
| encoder.transformer.layer.6.attention.output.weight           |   [512, 512] |   262144 |
| encoder.transformer.layer.6.attention.output.bias             |        [512] |      512 |
| encoder.transformer.layer.6.layer_norm.weight                 |        [512] |      512 |
| encoder.transformer.layer.6.layer_norm.bias                   |        [512] |      512 |
| encoder.transformer.layer.6.feed_forward.intermediate.weight  |  [2048, 512] |  1048576 |
| encoder.transformer.layer.6.feed_forward.intermediate.bias    |       [2048] |     2048 |
| encoder.transformer.layer.6.feed_forward.output.weight        |  [512, 2048] |  1048576 |
| encoder.transformer.layer.6.feed_forward.output.bias          |        [512] |      512 |
| encoder.transformer.layer.6.feed_forward.layer_norm.weight    |        [512] |      512 |
| encoder.transformer.layer.6.feed_forward.layer_norm.bias      |        [512] |      512 |
| encoder.transformer.layer.7.attention.key.weight              |   [512, 512] |   262144 |
| encoder.transformer.layer.7.attention.key.bias                |        [512] |      512 |
| encoder.transformer.layer.7.attention.query.weight            |   [512, 512] |   262144 |
| encoder.transformer.layer.7.attention.query.bias              |        [512] |      512 |
| encoder.transformer.layer.7.attention.value.weight            |   [512, 512] |   262144 |
| encoder.transformer.layer.7.attention.value.bias              |        [512] |      512 |
| encoder.transformer.layer.7.attention.output.weight           |   [512, 512] |   262144 |
| encoder.transformer.layer.7.attention.output.bias             |        [512] |      512 |
| encoder.transformer.layer.7.layer_norm.weight                 |        [512] |      512 |
| encoder.transformer.layer.7.layer_norm.bias                   |        [512] |      512 |
| encoder.transformer.layer.7.feed_forward.intermediate.weight  |  [2048, 512] |  1048576 |
| encoder.transformer.layer.7.feed_forward.intermediate.bias    |       [2048] |     2048 |
| encoder.transformer.layer.7.feed_forward.output.weight        |  [512, 2048] |  1048576 |
| encoder.transformer.layer.7.feed_forward.output.bias          |        [512] |      512 |
| encoder.transformer.layer.7.feed_forward.layer_norm.weight    |        [512] |      512 |
| encoder.transformer.layer.7.feed_forward.layer_norm.bias      |        [512] |      512 |
| decoder.transformer.layer.0.attention.key.weight              |   [512, 512] |   262144 |
| decoder.transformer.layer.0.attention.key.bias                |        [512] |      512 |
| decoder.transformer.layer.0.attention.query.weight            |   [512, 512] |   262144 |
| decoder.transformer.layer.0.attention.query.bias              |        [512] |      512 |
| decoder.transformer.layer.0.attention.value.weight            |   [512, 512] |   262144 |
| decoder.transformer.layer.0.attention.value.bias              |        [512] |      512 |
| decoder.transformer.layer.0.attention.output.weight           |   [512, 512] |   262144 |
| decoder.transformer.layer.0.attention.output.bias             |        [512] |      512 |
| decoder.transformer.layer.0.layer_norm.weight                 |        [512] |      512 |
| decoder.transformer.layer.0.layer_norm.bias                   |        [512] |      512 |
| decoder.transformer.layer.0.context_attn.key.weight           |   [512, 512] |   262144 |
| decoder.transformer.layer.0.context_attn.key.bias             |        [512] |      512 |
| decoder.transformer.layer.0.context_attn.query.weight         |   [512, 512] |   262144 |
| decoder.transformer.layer.0.context_attn.query.bias           |        [512] |      512 |
| decoder.transformer.layer.0.context_attn.value.weight         |   [512, 512] |   262144 |
| decoder.transformer.layer.0.context_attn.value.bias           |        [512] |      512 |
| decoder.transformer.layer.0.context_attn.output.weight        |   [512, 512] |   262144 |
| decoder.transformer.layer.0.context_attn.output.bias          |        [512] |      512 |
| decoder.transformer.layer.0.layer_norm_2.weight               |        [512] |      512 |
| decoder.transformer.layer.0.layer_norm_2.bias                 |        [512] |      512 |
| decoder.transformer.layer.0.feed_forward.intermediate.weight  |  [2048, 512] |  1048576 |
| decoder.transformer.layer.0.feed_forward.intermediate.bias    |       [2048] |     2048 |
| decoder.transformer.layer.0.feed_forward.output.weight        |  [512, 2048] |  1048576 |
| decoder.transformer.layer.0.feed_forward.output.bias          |        [512] |      512 |
| decoder.transformer.layer.0.feed_forward.layer_norm.weight    |        [512] |      512 |
| decoder.transformer.layer.0.feed_forward.layer_norm.bias      |        [512] |      512 |
| decoder.transformer.layer.1.attention.key.weight              |   [512, 512] |   262144 |
| decoder.transformer.layer.1.attention.key.bias                |        [512] |      512 |
| decoder.transformer.layer.1.attention.query.weight            |   [512, 512] |   262144 |
| decoder.transformer.layer.1.attention.query.bias              |        [512] |      512 |
| decoder.transformer.layer.1.attention.value.weight            |   [512, 512] |   262144 |
| decoder.transformer.layer.1.attention.value.bias              |        [512] |      512 |
| decoder.transformer.layer.1.attention.output.weight           |   [512, 512] |   262144 |
| decoder.transformer.layer.1.attention.output.bias             |        [512] |      512 |
| decoder.transformer.layer.1.layer_norm.weight                 |        [512] |      512 |
| decoder.transformer.layer.1.layer_norm.bias                   |        [512] |      512 |
| decoder.transformer.layer.1.context_attn.key.weight           |   [512, 512] |   262144 |
| decoder.transformer.layer.1.context_attn.key.bias             |        [512] |      512 |
| decoder.transformer.layer.1.context_attn.query.weight         |   [512, 512] |   262144 |
| decoder.transformer.layer.1.context_attn.query.bias           |        [512] |      512 |
| decoder.transformer.layer.1.context_attn.value.weight         |   [512, 512] |   262144 |
| decoder.transformer.layer.1.context_attn.value.bias           |        [512] |      512 |
| decoder.transformer.layer.1.context_attn.output.weight        |   [512, 512] |   262144 |
| decoder.transformer.layer.1.context_attn.output.bias          |        [512] |      512 |
| decoder.transformer.layer.1.layer_norm_2.weight               |        [512] |      512 |
| decoder.transformer.layer.1.layer_norm_2.bias                 |        [512] |      512 |
| decoder.transformer.layer.1.feed_forward.intermediate.weight  |  [2048, 512] |  1048576 |
| decoder.transformer.layer.1.feed_forward.intermediate.bias    |       [2048] |     2048 |
| decoder.transformer.layer.1.feed_forward.output.weight        |  [512, 2048] |  1048576 |
| decoder.transformer.layer.1.feed_forward.output.bias          |        [512] |      512 |
| decoder.transformer.layer.1.feed_forward.layer_norm.weight    |        [512] |      512 |
| decoder.transformer.layer.1.feed_forward.layer_norm.bias      |        [512] |      512 |
| decoder.transformer.layer.2.attention.key.weight              |   [512, 512] |   262144 |
| decoder.transformer.layer.2.attention.key.bias                |        [512] |      512 |
| decoder.transformer.layer.2.attention.query.weight            |   [512, 512] |   262144 |
| decoder.transformer.layer.2.attention.query.bias              |        [512] |      512 |
| decoder.transformer.layer.2.attention.value.weight            |   [512, 512] |   262144 |
| decoder.transformer.layer.2.attention.value.bias              |        [512] |      512 |
| decoder.transformer.layer.2.attention.output.weight           |   [512, 512] |   262144 |
| decoder.transformer.layer.2.attention.output.bias             |        [512] |      512 |
| decoder.transformer.layer.2.layer_norm.weight                 |        [512] |      512 |
| decoder.transformer.layer.2.layer_norm.bias                   |        [512] |      512 |
| decoder.transformer.layer.2.context_attn.key.weight           |   [512, 512] |   262144 |
| decoder.transformer.layer.2.context_attn.key.bias             |        [512] |      512 |
| decoder.transformer.layer.2.context_attn.query.weight         |   [512, 512] |   262144 |
| decoder.transformer.layer.2.context_attn.query.bias           |        [512] |      512 |
| decoder.transformer.layer.2.context_attn.value.weight         |   [512, 512] |   262144 |
| decoder.transformer.layer.2.context_attn.value.bias           |        [512] |      512 |
| decoder.transformer.layer.2.context_attn.output.weight        |   [512, 512] |   262144 |
| decoder.transformer.layer.2.context_attn.output.bias          |        [512] |      512 |
| decoder.transformer.layer.2.layer_norm_2.weight               |        [512] |      512 |
| decoder.transformer.layer.2.layer_norm_2.bias                 |        [512] |      512 |
| decoder.transformer.layer.2.feed_forward.intermediate.weight  |  [2048, 512] |  1048576 |
| decoder.transformer.layer.2.feed_forward.intermediate.bias    |       [2048] |     2048 |
| decoder.transformer.layer.2.feed_forward.output.weight        |  [512, 2048] |  1048576 |
| decoder.transformer.layer.2.feed_forward.output.bias          |        [512] |      512 |
| decoder.transformer.layer.2.feed_forward.layer_norm.weight    |        [512] |      512 |
| decoder.transformer.layer.2.feed_forward.layer_norm.bias      |        [512] |      512 |
| decoder.transformer.layer.3.attention.key.weight              |   [512, 512] |   262144 |
| decoder.transformer.layer.3.attention.key.bias                |        [512] |      512 |
| decoder.transformer.layer.3.attention.query.weight            |   [512, 512] |   262144 |
| decoder.transformer.layer.3.attention.query.bias              |        [512] |      512 |
| decoder.transformer.layer.3.attention.value.weight            |   [512, 512] |   262144 |
| decoder.transformer.layer.3.attention.value.bias              |        [512] |      512 |
| decoder.transformer.layer.3.attention.output.weight           |   [512, 512] |   262144 |
| decoder.transformer.layer.3.attention.output.bias             |        [512] |      512 |
| decoder.transformer.layer.3.layer_norm.weight                 |        [512] |      512 |
| decoder.transformer.layer.3.layer_norm.bias                   |        [512] |      512 |
| decoder.transformer.layer.3.context_attn.key.weight           |   [512, 512] |   262144 |
| decoder.transformer.layer.3.context_attn.key.bias             |        [512] |      512 |
| decoder.transformer.layer.3.context_attn.query.weight         |   [512, 512] |   262144 |
| decoder.transformer.layer.3.context_attn.query.bias           |        [512] |      512 |
| decoder.transformer.layer.3.context_attn.value.weight         |   [512, 512] |   262144 |
| decoder.transformer.layer.3.context_attn.value.bias           |        [512] |      512 |
| decoder.transformer.layer.3.context_attn.output.weight        |   [512, 512] |   262144 |
| decoder.transformer.layer.3.context_attn.output.bias          |        [512] |      512 |
| decoder.transformer.layer.3.layer_norm_2.weight               |        [512] |      512 |
| decoder.transformer.layer.3.layer_norm_2.bias                 |        [512] |      512 |
| decoder.transformer.layer.3.feed_forward.intermediate.weight  |  [2048, 512] |  1048576 |
| decoder.transformer.layer.3.feed_forward.intermediate.bias    |       [2048] |     2048 |
| decoder.transformer.layer.3.feed_forward.output.weight        |  [512, 2048] |  1048576 |
| decoder.transformer.layer.3.feed_forward.output.bias          |        [512] |      512 |
| decoder.transformer.layer.3.feed_forward.layer_norm.weight    |        [512] |      512 |
| decoder.transformer.layer.3.feed_forward.layer_norm.bias      |        [512] |      512 |
| decoder.transformer.layer.4.attention.key.weight              |   [512, 512] |   262144 |
| decoder.transformer.layer.4.attention.key.bias                |        [512] |      512 |
| decoder.transformer.layer.4.attention.query.weight            |   [512, 512] |   262144 |
| decoder.transformer.layer.4.attention.query.bias              |        [512] |      512 |
| decoder.transformer.layer.4.attention.value.weight            |   [512, 512] |   262144 |
| decoder.transformer.layer.4.attention.value.bias              |        [512] |      512 |
| decoder.transformer.layer.4.attention.output.weight           |   [512, 512] |   262144 |
| decoder.transformer.layer.4.attention.output.bias             |        [512] |      512 |
| decoder.transformer.layer.4.layer_norm.weight                 |        [512] |      512 |
| decoder.transformer.layer.4.layer_norm.bias                   |        [512] |      512 |
| decoder.transformer.layer.4.context_attn.key.weight           |   [512, 512] |   262144 |
| decoder.transformer.layer.4.context_attn.key.bias             |        [512] |      512 |
| decoder.transformer.layer.4.context_attn.query.weight         |   [512, 512] |   262144 |
| decoder.transformer.layer.4.context_attn.query.bias           |        [512] |      512 |
| decoder.transformer.layer.4.context_attn.value.weight         |   [512, 512] |   262144 |
| decoder.transformer.layer.4.context_attn.value.bias           |        [512] |      512 |
| decoder.transformer.layer.4.context_attn.output.weight        |   [512, 512] |   262144 |
| decoder.transformer.layer.4.context_attn.output.bias          |        [512] |      512 |
| decoder.transformer.layer.4.layer_norm_2.weight               |        [512] |      512 |
| decoder.transformer.layer.4.layer_norm_2.bias                 |        [512] |      512 |
| decoder.transformer.layer.4.feed_forward.intermediate.weight  |  [2048, 512] |  1048576 |
| decoder.transformer.layer.4.feed_forward.intermediate.bias    |       [2048] |     2048 |
| decoder.transformer.layer.4.feed_forward.output.weight        |  [512, 2048] |  1048576 |
| decoder.transformer.layer.4.feed_forward.output.bias          |        [512] |      512 |
| decoder.transformer.layer.4.feed_forward.layer_norm.weight    |        [512] |      512 |
| decoder.transformer.layer.4.feed_forward.layer_norm.bias      |        [512] |      512 |
| decoder.transformer.layer.5.attention.key.weight              |   [512, 512] |   262144 |
| decoder.transformer.layer.5.attention.key.bias                |        [512] |      512 |
| decoder.transformer.layer.5.attention.query.weight            |   [512, 512] |   262144 |
| decoder.transformer.layer.5.attention.query.bias              |        [512] |      512 |
| decoder.transformer.layer.5.attention.value.weight            |   [512, 512] |   262144 |
| decoder.transformer.layer.5.attention.value.bias              |        [512] |      512 |
| decoder.transformer.layer.5.attention.output.weight           |   [512, 512] |   262144 |
| decoder.transformer.layer.5.attention.output.bias             |        [512] |      512 |
| decoder.transformer.layer.5.layer_norm.weight                 |        [512] |      512 |
| decoder.transformer.layer.5.layer_norm.bias                   |        [512] |      512 |
| decoder.transformer.layer.5.context_attn.key.weight           |   [512, 512] |   262144 |
| decoder.transformer.layer.5.context_attn.key.bias             |        [512] |      512 |
| decoder.transformer.layer.5.context_attn.query.weight         |   [512, 512] |   262144 |
| decoder.transformer.layer.5.context_attn.query.bias           |        [512] |      512 |
| decoder.transformer.layer.5.context_attn.value.weight         |   [512, 512] |   262144 |
| decoder.transformer.layer.5.context_attn.value.bias           |        [512] |      512 |
| decoder.transformer.layer.5.context_attn.output.weight        |   [512, 512] |   262144 |
| decoder.transformer.layer.5.context_attn.output.bias          |        [512] |      512 |
| decoder.transformer.layer.5.layer_norm_2.weight               |        [512] |      512 |
| decoder.transformer.layer.5.layer_norm_2.bias                 |        [512] |      512 |
| decoder.transformer.layer.5.feed_forward.intermediate.weight  |  [2048, 512] |  1048576 |
| decoder.transformer.layer.5.feed_forward.intermediate.bias    |       [2048] |     2048 |
| decoder.transformer.layer.5.feed_forward.output.weight        |  [512, 2048] |  1048576 |
| decoder.transformer.layer.5.feed_forward.output.bias          |        [512] |      512 |
| decoder.transformer.layer.5.feed_forward.layer_norm.weight    |        [512] |      512 |
| decoder.transformer.layer.5.feed_forward.layer_norm.bias      |        [512] |      512 |
| decoder.transformer.layer.6.attention.key.weight              |   [512, 512] |   262144 |
| decoder.transformer.layer.6.attention.key.bias                |        [512] |      512 |
| decoder.transformer.layer.6.attention.query.weight            |   [512, 512] |   262144 |
| decoder.transformer.layer.6.attention.query.bias              |        [512] |      512 |
| decoder.transformer.layer.6.attention.value.weight            |   [512, 512] |   262144 |
| decoder.transformer.layer.6.attention.value.bias              |        [512] |      512 |
| decoder.transformer.layer.6.attention.output.weight           |   [512, 512] |   262144 |
| decoder.transformer.layer.6.attention.output.bias             |        [512] |      512 |
| decoder.transformer.layer.6.layer_norm.weight                 |        [512] |      512 |
| decoder.transformer.layer.6.layer_norm.bias                   |        [512] |      512 |
| decoder.transformer.layer.6.context_attn.key.weight           |   [512, 512] |   262144 |
| decoder.transformer.layer.6.context_attn.key.bias             |        [512] |      512 |
| decoder.transformer.layer.6.context_attn.query.weight         |   [512, 512] |   262144 |
| decoder.transformer.layer.6.context_attn.query.bias           |        [512] |      512 |
| decoder.transformer.layer.6.context_attn.value.weight         |   [512, 512] |   262144 |
| decoder.transformer.layer.6.context_attn.value.bias           |        [512] |      512 |
| decoder.transformer.layer.6.context_attn.output.weight        |   [512, 512] |   262144 |
| decoder.transformer.layer.6.context_attn.output.bias          |        [512] |      512 |
| decoder.transformer.layer.6.layer_norm_2.weight               |        [512] |      512 |
| decoder.transformer.layer.6.layer_norm_2.bias                 |        [512] |      512 |
| decoder.transformer.layer.6.feed_forward.intermediate.weight  |  [2048, 512] |  1048576 |
| decoder.transformer.layer.6.feed_forward.intermediate.bias    |       [2048] |     2048 |
| decoder.transformer.layer.6.feed_forward.output.weight        |  [512, 2048] |  1048576 |
| decoder.transformer.layer.6.feed_forward.output.bias          |        [512] |      512 |
| decoder.transformer.layer.6.feed_forward.layer_norm.weight    |        [512] |      512 |
| decoder.transformer.layer.6.feed_forward.layer_norm.bias      |        [512] |      512 |
| decoder.transformer.layer.7.attention.key.weight              |   [512, 512] |   262144 |
| decoder.transformer.layer.7.attention.key.bias                |        [512] |      512 |
| decoder.transformer.layer.7.attention.query.weight            |   [512, 512] |   262144 |
| decoder.transformer.layer.7.attention.query.bias              |        [512] |      512 |
| decoder.transformer.layer.7.attention.value.weight            |   [512, 512] |   262144 |
| decoder.transformer.layer.7.attention.value.bias              |        [512] |      512 |
| decoder.transformer.layer.7.attention.output.weight           |   [512, 512] |   262144 |
| decoder.transformer.layer.7.attention.output.bias             |        [512] |      512 |
| decoder.transformer.layer.7.layer_norm.weight                 |        [512] |      512 |
| decoder.transformer.layer.7.layer_norm.bias                   |        [512] |      512 |
| decoder.transformer.layer.7.context_attn.key.weight           |   [512, 512] |   262144 |
| decoder.transformer.layer.7.context_attn.key.bias             |        [512] |      512 |
| decoder.transformer.layer.7.context_attn.query.weight         |   [512, 512] |   262144 |
| decoder.transformer.layer.7.context_attn.query.bias           |        [512] |      512 |
| decoder.transformer.layer.7.context_attn.value.weight         |   [512, 512] |   262144 |
| decoder.transformer.layer.7.context_attn.value.bias           |        [512] |      512 |
| decoder.transformer.layer.7.context_attn.output.weight        |   [512, 512] |   262144 |
| decoder.transformer.layer.7.context_attn.output.bias          |        [512] |      512 |
| decoder.transformer.layer.7.layer_norm_2.weight               |        [512] |      512 |
| decoder.transformer.layer.7.layer_norm_2.bias                 |        [512] |      512 |
| decoder.transformer.layer.7.feed_forward.intermediate.weight  |  [2048, 512] |  1048576 |
| decoder.transformer.layer.7.feed_forward.intermediate.bias    |       [2048] |     2048 |
| decoder.transformer.layer.7.feed_forward.output.weight        |  [512, 2048] |  1048576 |
| decoder.transformer.layer.7.feed_forward.output.bias          |        [512] |      512 |
| decoder.transformer.layer.7.feed_forward.layer_norm.weight    |        [512] |      512 |
| decoder.transformer.layer.7.feed_forward.layer_norm.bias      |        [512] |      512 |
| generator.bias                                                |      [30000] |    30000 |
| copy_attn.linear_in.weight                                    |   [512, 512] |   262144 |
| copy_attn.linear_out.weight                                   |  [512, 1024] |   524288 |
| copy_generator.linear_copy.weight                             |     [1, 512] |      512 |
| copy_generator.linear_copy.bias                               |          [1] |        1 |
+---------------------------------------------------------------+--------------+----------+ ]
02/26/2024 08:26:19 PM: [ ---------------------------------------------------------------------------------------------------- ]
02/26/2024 08:26:19 PM: [ Make data loaders ]
02/26/2024 08:26:19 PM: [ ---------------------------------------------------------------------------------------------------- ]
…
